Found 500 val images
----------------------------------------------------------------
        Layer (type)               Output Shape         Param #
================================================================
            Conv2d-1         [-1, 64, 128, 256]           9,408
       BatchNorm2d-2         [-1, 64, 128, 256]             128
              ReLU-3         [-1, 64, 128, 256]               0
         MaxPool2d-4          [-1, 64, 64, 128]               0
            Conv2d-5          [-1, 64, 64, 128]          36,864
       BatchNorm2d-6          [-1, 64, 64, 128]             128
              ReLU-7          [-1, 64, 64, 128]               0
            Conv2d-8          [-1, 64, 64, 128]          36,864
       BatchNorm2d-9          [-1, 64, 64, 128]             128
             ReLU-10          [-1, 64, 64, 128]               0
       BasicBlock-11          [-1, 64, 64, 128]               0
           Conv2d-12          [-1, 64, 64, 128]          36,864
      BatchNorm2d-13          [-1, 64, 64, 128]             128
             ReLU-14          [-1, 64, 64, 128]               0
           Conv2d-15          [-1, 64, 64, 128]          36,864
      BatchNorm2d-16          [-1, 64, 64, 128]             128
             ReLU-17          [-1, 64, 64, 128]               0
       BasicBlock-18          [-1, 64, 64, 128]               0
           Conv2d-19          [-1, 64, 64, 128]          36,864
      BatchNorm2d-20          [-1, 64, 64, 128]             128
             ReLU-21          [-1, 64, 64, 128]               0
           Conv2d-22          [-1, 64, 64, 128]          36,864
      BatchNorm2d-23          [-1, 64, 64, 128]             128
             ReLU-24          [-1, 64, 64, 128]               0
       BasicBlock-25          [-1, 64, 64, 128]               0
           Conv2d-26          [-1, 128, 32, 64]          73,728
      BatchNorm2d-27          [-1, 128, 32, 64]             256
             ReLU-28          [-1, 128, 32, 64]               0
           Conv2d-29          [-1, 128, 32, 64]         147,456
      BatchNorm2d-30          [-1, 128, 32, 64]             256
           Conv2d-31          [-1, 128, 32, 64]           8,192
      BatchNorm2d-32          [-1, 128, 32, 64]             256
             ReLU-33          [-1, 128, 32, 64]               0
       BasicBlock-34          [-1, 128, 32, 64]               0
           Conv2d-35          [-1, 128, 32, 64]         147,456
      BatchNorm2d-36          [-1, 128, 32, 64]             256
             ReLU-37          [-1, 128, 32, 64]               0
           Conv2d-38          [-1, 128, 32, 64]         147,456
      BatchNorm2d-39          [-1, 128, 32, 64]             256
             ReLU-40          [-1, 128, 32, 64]               0
       BasicBlock-41          [-1, 128, 32, 64]               0
           Conv2d-42          [-1, 128, 32, 64]         147,456
      BatchNorm2d-43          [-1, 128, 32, 64]             256
             ReLU-44          [-1, 128, 32, 64]               0
           Conv2d-45          [-1, 128, 32, 64]         147,456
      BatchNorm2d-46          [-1, 128, 32, 64]             256
             ReLU-47          [-1, 128, 32, 64]               0
       BasicBlock-48          [-1, 128, 32, 64]               0
           Conv2d-49          [-1, 128, 32, 64]         147,456
      BatchNorm2d-50          [-1, 128, 32, 64]             256
             ReLU-51          [-1, 128, 32, 64]               0
           Conv2d-52          [-1, 128, 32, 64]         147,456
      BatchNorm2d-53          [-1, 128, 32, 64]             256
             ReLU-54          [-1, 128, 32, 64]               0
       BasicBlock-55          [-1, 128, 32, 64]               0
           Conv2d-56          [-1, 256, 16, 32]         294,912
      BatchNorm2d-57          [-1, 256, 16, 32]             512
             ReLU-58          [-1, 256, 16, 32]               0
           Conv2d-59          [-1, 256, 16, 32]         589,824
      BatchNorm2d-60          [-1, 256, 16, 32]             512
           Conv2d-61          [-1, 256, 16, 32]          32,768
      BatchNorm2d-62          [-1, 256, 16, 32]             512
             ReLU-63          [-1, 256, 16, 32]               0
       BasicBlock-64          [-1, 256, 16, 32]               0
           Conv2d-65          [-1, 256, 16, 32]         589,824
      BatchNorm2d-66          [-1, 256, 16, 32]             512
             ReLU-67          [-1, 256, 16, 32]               0
           Conv2d-68          [-1, 256, 16, 32]         589,824
      BatchNorm2d-69          [-1, 256, 16, 32]             512
             ReLU-70          [-1, 256, 16, 32]               0
       BasicBlock-71          [-1, 256, 16, 32]               0
           Conv2d-72          [-1, 256, 16, 32]         589,824
      BatchNorm2d-73          [-1, 256, 16, 32]             512
             ReLU-74          [-1, 256, 16, 32]               0
           Conv2d-75          [-1, 256, 16, 32]         589,824
      BatchNorm2d-76          [-1, 256, 16, 32]             512
             ReLU-77          [-1, 256, 16, 32]               0
       BasicBlock-78          [-1, 256, 16, 32]               0
           Conv2d-79          [-1, 256, 16, 32]         589,824
      BatchNorm2d-80          [-1, 256, 16, 32]             512
             ReLU-81          [-1, 256, 16, 32]               0
           Conv2d-82          [-1, 256, 16, 32]         589,824
      BatchNorm2d-83          [-1, 256, 16, 32]             512
             ReLU-84          [-1, 256, 16, 32]               0
       BasicBlock-85          [-1, 256, 16, 32]               0
           Conv2d-86          [-1, 256, 16, 32]         589,824
      BatchNorm2d-87          [-1, 256, 16, 32]             512
             ReLU-88          [-1, 256, 16, 32]               0
           Conv2d-89          [-1, 256, 16, 32]         589,824
      BatchNorm2d-90          [-1, 256, 16, 32]             512
             ReLU-91          [-1, 256, 16, 32]               0
       BasicBlock-92          [-1, 256, 16, 32]               0
           Conv2d-93          [-1, 256, 16, 32]         589,824
      BatchNorm2d-94          [-1, 256, 16, 32]             512
             ReLU-95          [-1, 256, 16, 32]               0
           Conv2d-96          [-1, 256, 16, 32]         589,824
      BatchNorm2d-97          [-1, 256, 16, 32]             512
             ReLU-98          [-1, 256, 16, 32]               0
       BasicBlock-99          [-1, 256, 16, 32]               0
================================================================
Total params: 8,170,304
Trainable params: 8,170,304
Non-trainable params: 0
----------------------------------------------------------------
Input size (MB): 1.50
Forward/backward pass size (MB): 240.00
Params size (MB): 31.17
Estimated Total Size (MB): 272.67
----------------------------------------------------------------
----------------------------------------------------------------
        Layer (type)               Output Shape         Param #
================================================================
   ConvTranspose2d-1          [-1, 128, 32, 64]         131,200
            Conv2d-2          [-1, 128, 32, 64]         147,584
      Conv2_discon-3          [-1, 128, 32, 64]               0
   Up_disconnected-4          [-1, 128, 32, 64]               0
   ConvTranspose2d-5          [-1, 64, 64, 128]          32,832
            Conv2d-6          [-1, 64, 64, 128]          36,928
      Conv2_discon-7          [-1, 64, 64, 128]               0
   Up_disconnected-8          [-1, 64, 64, 128]               0
   ConvTranspose2d-9         [-1, 32, 128, 256]           8,224
           Conv2d-10         [-1, 32, 128, 256]           9,248
     Conv2_discon-11         [-1, 32, 128, 256]               0
  Up_disconnected-12         [-1, 32, 128, 256]               0
  ConvTranspose2d-13         [-1, 16, 256, 512]           2,064
           Conv2d-14         [-1, 16, 256, 512]           2,320
     Conv2_discon-15         [-1, 16, 256, 512]               0
  Up_disconnected-16         [-1, 16, 256, 512]               0
           Conv2d-17         [-1, 19, 256, 512]             323
        segment_L-18         [-1, 19, 256, 512]               0
================================================================
Total params: 370,723
Trainable params: 370,723
Non-trainable params: 0
----------------------------------------------------------------
Input size (MB): 0.50
Forward/backward pass size (MB): 158.00
Params size (MB): 1.41
Estimated Total Size (MB): 159.91
----------------------------------------------------------------
Loading model and optimizer from checkpoint './ICIP_weights_and_results/feature_model_14_1.pkl'
…
